…
The number of items: 5483
Average actions of items: 3.749589640707642
The number of inters: 20559
The sparsity of the dataset: 99.98071694707788%
Mon 17 Feb 2025 04:27:25 INFO 
====Testing====
baby
The number of users: 19445
Average actions of users: 1.1150424273592183
The number of items: 5549
Average actions of items: 3.907370697422959
The number of inters: 21682
The sparsity of the dataset: 99.97990552482683%
Mon 17 Feb 2025 04:27:33 INFO 

=================================


Mon 17 Feb 2025 04:27:33 INFO =========1/1: Parameters:['seed']=(42,)=======
Mon 17 Feb 2025 04:27:34 INFO FREEDOM(
  (user_embedding): Embedding(19445, 64)
  (item_id_embedding): Embedding(7050, 64)
  (image_embedding): Embedding(7050, 4096)
  (image_trs): Linear(in_features=4096, out_features=64, bias=True)
  (text_embedding): Embedding(7050, 384)
  (text_trs): Linear(in_features=384, out_features=64, bias=True)
)
Trainable parameters: 33566528
Mon 17 Feb 2025 04:27:34 INFO GUIDER(
  (user_embedding): Embedding(19445, 64)
  (item_id_embedding): Embedding(7050, 64)
  (image_embedding): Embedding(7050, 4096)
  (image_trs): Linear(in_features=4096, out_features=64, bias=True)
  (text_embedding): Embedding(7050, 384)
  (text_trs): Linear(in_features=384, out_features=64, bias=True)
)
Trainable parameters: 33566528
Mon 17 Feb 2025 04:27:38 INFO epoch 0 training [time: 3.80s, train loss: 33.2626]
Mon 17 Feb 2025 04:27:38 INFO epoch 0 training [time: 3.80s, train loss: 40.3545]
Mon 17 Feb 2025 04:27:42 INFO epoch 1 training [time: 3.69s, train loss: 28.2881]
Mon 17 Feb 2025 04:27:42 INFO epoch 1 training [time: 3.69s, train loss: 39.6609]
…
